pepper_detect_2cat_0.25mnet.tflite (tflite, 430432 bytes, 48 tensors)

BoxPredictor_0/BoxEncodingPredictor/weights_quant/FakeQuantWithMinMaxVars u1 [12, 1, 1, 128] scale=0.0006828884 zero_point=140
00000000: 5d76 b68e 68c3 b4b8 889a c45d a980 7f3d
00000010: 5369 9b8e aa99 af78 7336 97b5 8749 4bb1
00000020: bbcf c8a9 8e6a 7ba2 af70 6f87 cfa9 eb8d
00000030: 666d adaf a38c 6cc2 be60 9a95 b3c5 9b8b
00000040: a29a 8364 88af 697c 659d 99be a46c ab90
00000050: 8bac 8fa0 d53a 9381 a378 8383 8e70 5ecd
00000060: 867a 728c aa7c 8586 68bc 55ba 68a3 6a94
00000070: 80b3 b4d1 7c7b 92c0 807f b0b3 47aa 886a
00000080: c719 8fe5 b988 aea6 8d3b 7674 ff92 b39c
00000090: 95bc 869c 88ca 99a7 8e46 7b52 f286 80ad
000000a0: 7992 7055 b3c3 a393 7868 929f c08c a2c4
000000b0: d2a6 8d85 728e 8f91 717e 9a4e b1be 9161
000000c0: 7094 7e9d 886c 9281 7aab ae94 a479 93cc
000000d0: 8928 8f9c 9fb9 b992 c397 5d8a 5b62 4155
000000e0: d278 5d7b 69b6 838e 889a a26e 353b 2ea5
000000f0: b1c3 b881 b876 a77e a192 9a8a 4b57 6991
-0.032095753 -0.015023544 0.028681312 0.0013657768 -0.024583982 0.03755886 0.027315535 0.030047089
-0.0027315535 0.009560437 0.038241748 -0.032095753 0.019803762 -0.008194661 -0.008877549 -0.053948183
-0.03892464 -0.023901094 0.0102433255 0.0013657768 0.020486651 0.008877549 0.023901094 -0.013657767
-0.01707221 -0.0587284 0.007511772 0.027998423 -0.0034144418 -0.04575352 -0.044387743 0.02526687
0.032095753 0.04575352 0.040973302 0.019803762 0.0013657768 -0.023218205 -0.011609103 0.015023544
0.023901094 -0.019120874 -0.019803762 -0.0034144418 0.04575352 0.019803762 0.064874396 0.0006828884
-0.025949758 -0.02116954 0.022535317 0.023901094 0.015706433 0.0 -0.021852428 0.03687597
0.03414442 -0.030047089 0.009560437 0.0061459956 0.026632646 0.03892464 0.0102433255 -0.0006828884
0.015023544 0.009560437 -0.0061459956 -0.027315535 -0.0027315535 0.023901094 -0.023901094 -0.010926214
-0.026632646 0.011609103 0.008877549 0.03414442 0.016389322 -0.021852428 0.02116954 0.0027315535
-0.0006828884 0.021852428 0.0020486652 0.013657767 0.04985085 -0.055996846 0.0047802185 -0.007511772
0.015706433 -0.013657767 -0.0061459956 -0.0061459956 0.0013657768 -0.019120874 -0.031412866 0.044387743
-0.0040973304 -0.012291991 -0.017755099 0.0 0.020486651 -0.010926214 -0.0047802185 -0.0040973304
-0.024583982 0.032778643 -0.03755886 0.031412866 -0.024583982 0.015706433 -0.023218205 0.005463107
-0.008194661 0.026632646 0.027315535 0.047119297 -0.010926214 -0.011609103 0.0040973304 0.035510197
-0.008194661 -0.008877549 0.024583982 0.026632646 -0.047119297 0.020486651 -0.0027315535 -0.023218205
0.040290415 -0.07853217 0.0020486652 0.060777064 0.030729977 -0.0027315535 0.023218205 0.017755099
0.0006828884 -0.05531396 -0.015023544 -0.016389322 0.07853217 0.0040973304 0.026632646 0.010926214
0.0061459956 0.032778643 -0.0040973304 0.010926214 -0.0027315535 0.04233908 0.008877549 0.018437985
0.0013657768 -0.047802188 -0.011609103 -0.039607525 0.069654614 -0.0040973304 -0.008194661 0.022535317
-0.012974879 0.0040973304 -0.019120874 -0.03755886 0.026632646 0.03755886 0.015706433 0.0047802185
-0.013657767 -0.024583982 0.0040973304 0.012974879 0.035510197 0.0 0.015023544 0.038241748
0.047802188 0.017755099 0.0006828884 -0.0047802185 -0.017755099 0.0013657768 0.0020486652 0.0034144418
-0.018437985 -0.009560437 0.009560437 -0.04233908 0.02526687 0.03414442 0.0034144418 -0.0293642
-0.019120874 0.005463107 -0.009560437 0.011609103 -0.0027315535 -0.021852428 0.0040973304 -0.007511772
-0.012291991 0.02116954 0.023218205 0.005463107 0.016389322 -0.012974879 0.0047802185 0.043704856
-0.0020486652 -0.06828884 0.0020486652 0.010926214 0.012974879 0.030729977 0.030729977 0.0040973304
0.03755886 0.007511772 -0.032095753 -0.0013657768 -0.03346153 -0.028681312 -0.05121663 -0.03755886
0.047802188 -0.013657767 -0.032095753 -0.011609103 -0.023901094 0.028681312 -0.0061459956 0.0013657768
-0.0027315535 0.009560437 0.015023544 -0.020486651 -0.059411287 -0.05531396 -0.064191505 0.01707221
0.02526687 0.03755886 0.030047089 -0.007511772 0.030047089 -0.015023544 0.018437985 -0.009560437
0.014340656 0.0040973304 0.009560437 -0.0013657768 -0.044387743 -0.036193084 -0.023901094 0.0034144418

BoxPredictor_0/ClassPredictor/weights_quant/FakeQuantWithMinMaxVars u1 [9, 1, 1, 128] scale=0.0007241006 zero_point=183
00000000: acb3 b1b1 b3b1 b1b2 b2b3 b1b1 b1b2 b1ac
00000010: b2b0 b3b2 afb2 b2b2 b2af b3b3 b3b2 b1b2
00000020: b3b3 b2b2 b3b1 b2b2 b2b0 b2b1 b1b3 afb1
00000030: b0b2 b1b3 b3b1 afb3 b1b1 aeb0 b3b2 aeb2
00000040: b0b2 b3b2 abb0 b2b2 afb3 b1b2 b0af b1b0
00000050: adb2 adb1 b3ad b1b1 b3b2 b0b1 b1b1 b2b2
00000060: b0b3 b2b1 b1ae adb2 b2b1 b2b2 b2b2 b1b2
00000070: b1b3 afb2 b2b1 b3b3 b1b3 b2b3 afb2 b0b0
00000080: 75b9 ce80 c2c3 d7c3 dbbd b6d5 69c2 d071
00000090: bdc7 b0d8 65b1 b9a5 c786 a8bc c2cd e2a6
000000a0: c6b6 84c7 d4bc d9ca ccd0 b6da c1ca a9ba
000000b0: 87cf acde c1a4 98d1 c9dc c496 ded3 50cd
000000c0: 99ec d458 a55c d9c6 acd3 b4dd bc7d c398
000000d0: 9372 95cd af6f c6c7 3bbf 18ac c9eb b3dd
000000e0: c8b5 bee2 c47e 96c6 dd1d edae b6cd e9d9
000000f0: c8b7 a6aa c1c5 b9ce d0e3 01cd d7c6 dc4f
-0.0079651065 -0.0028964025 -0.004344604 -0.004344604 -0.0028964025 -0.004344604 -0.004344604 -0.003620503
-0.003620503 -0.0028964025 -0.004344604 -0.004344604 -0.004344604 -0.003620503 -0.004344604 -0.0079651065
-0.003620503 -0.0050687045 -0.0028964025 -0.003620503 -0.005792805 -0.003620503 -0.003620503 -0.003620503
-0.003620503 -0.005792805 -0.0028964025 -0.0028964025 -0.0028964025 -0.003620503 -0.004344604 -0.003620503
-0.0028964025 -0.0028964025 -0.003620503 -0.003620503 -0.0028964025 -0.004344604 -0.003620503 -0.003620503
-0.003620503 -0.0050687045 -0.003620503 -0.004344604 -0.004344604 -0.0028964025 -0.005792805 -0.004344604
-0.0050687045 -0.003620503 -0.004344604 -0.0028964025 -0.0028964025 -0.004344604 -0.005792805 -0.0028964025
-0.004344604 -0.004344604 -0.0065169055 -0.0050687045 -0.0028964025 -0.003620503 -0.0065169055 -0.003620503
-0.0050687045 -0.003620503 -0.0028964025 -0.003620503 -0.008689208 -0.0050687045 -0.003620503 -0.003620503
-0.005792805 -0.0028964025 -0.004344604 -0.003620503 -0.0050687045 -0.005792805 -0.004344604 -0.0050687045
-0.007241006 -0.003620503 -0.007241006 -0.004344604 -0.0028964025 -0.007241006 -0.004344604 -0.004344604
-0.0028964025 -0.003620503 -0.0050687045 -0.004344604 -0.004344604 -0.004344604 -0.003620503 -0.003620503
-0.0050687045 -0.0028964025 -0.003620503 -0.004344604 -0.004344604 -0.0065169055 -0.007241006 -0.003620503
-0.003620503 -0.004344604 -0.003620503 -0.003620503 -0.003620503 -0.003620503 -0.004344604 -0.003620503
-0.004344604 -0.0028964025 -0.005792805 -0.003620503 -0.003620503 -0.004344604 -0.0028964025 -0.0028964025
-0.004344604 -0.0028964025 -0.003620503 -0.0028964025 -0.005792805 -0.003620503 -0.0050687045 -0.0050687045
-0.047790643 0.0014482012 0.016654314 -0.039825533 0.0079651065 0.008689208 0.02317122 0.008689208
0.026067622 0.004344604 -0.0007241006 0.021723019 -0.05647985 0.0079651065 0.018102515 -0.050687045
0.004344604 0.01158561 -0.0050687045 0.023895321 -0.05937625 -0.004344604 0.0014482012 -0.013033811
0.01158561 -0.03548093 -0.0108615095 0.003620503 0.0079651065 0.015930213 0.031136326 -0.0123097105
0.0108615095 -0.0007241006 -0.03692913 0.01158561 0.020998918 0.003620503 0.024619421 0.0137579115
0.015206113 0.018102515 -0.0007241006 0.025343522 0.007241006 0.0137579115 -0.010137409 0.002172302
-0.03475683 0.017378416 -0.0079651065 0.028239924 0.007241006 -0.0137579115 -0.022447119 0.018826617
0.013033811 0.026791723 0.009413308 -0.023895321 0.028239924 0.020274818 -0.07458236 0.015930213
-0.021723019 0.038377333 0.020998918 -0.06878956 -0.013033811 -0.06589316 0.024619421 0.0108615095
-0.0079651065 0.020274818 -0.002172302 0.027515823 0.003620503 -0.041997835 0.008689208 -0.022447119
-0.026067622 -0.04996294 -0.024619421 0.015930213 -0.005792805 -0.052135244 0.0108615095 0.01158561
-0.089788474 0.005792805 -0.115132 -0.0079651065 0.013033811 0.037653234 -0.0028964025 0.027515823
0.0123097105 -0.0014482012 0.0050687045 0.031136326 0.009413308 -0.041273735 -0.023895321 0.0108615095
0.027515823 -0.1115115 0.039101433 -0.0065169055 -0.0007241006 0.015930213 0.03620503 0.024619421
0.0123097105 0.0 -0.0123097105 -0.009413308 0.007241006 0.010137409 0.0014482012 0.016654314
0.018102515 0.031860426 -0.13178632 0.015930213 0.02317122 0.0108615095 0.026791723 -0.07530647

BoxPredictor_1/BoxEncodingPredictor/weights_quant/FakeQuantWithMinMaxVars u1 [24, 1, 1, 256] scale=0.0005300035 zero_point=147
00000000: 535e aaca 32af db7d 7972 be5e d847 aeab
00000010: b880 9982 9f8c 7ca4 97dc 9164 81a3 64c7
00000020: 5aa5 be9e 8e99 8c77 8b58 7b8f 6b84 3ea9
00000030: a7df a484 8982 db95 8aa0 7898 5a6a af7a
00000040: b4a0 7dbf 66b6 52c9 6e8a 8f7d 9fc0 9d92
00000050: 6f69 50ce 7475 cd78 6d8f d35d 8683 9b95
00000060: c836 a9b4 a59b 8a71 9c7f cfd5 3b79 c4c8
00000070: 8d63 bb61 e7cc 925d 9d9b 5959 b3c4 9ebb
00000080: e379 aac6 8c8a 72a6 80d8 7da6 a570 c8b6
00000090: bd83 928c 5dd6 a774 e091 d06b 9dad b1da
000000a0: d6af 5f67 a49d b59b 9cd4 b8a1 d689 a06f
000000b0: c96f 75e4 d178 b082 6e88 8bc2 9776 c4b5
000000c0: a584 8e9f 6f5c b8b1 b661 7176 b4b1 d8c1
000000d0: 53a2 847e 706a 7958 9395 aa63 7898 a780
000000e0: 7acf ff8c 67b8 a077 5883 bc5e 9f48 9b69
000000f0: d095 f873 95c4 a59d 98a4 6d7c dba3 945e
-0.033920225 -0.028090186 0.012190081 0.029150194 -0.05141034 0.014840098 0.038160253 -0.011660078
-0.013780091 -0.017490115 0.02279015 -0.028090186 0.036570244 -0.040280268 0.0143100945 0.012720084
0.01961013 -0.010070067 0.003180021 -0.00901006 0.006360042 -0.0037100245 -0.012190081 0.00901006
0.002120014 0.038690258 -0.001060007 -0.024910165 -0.009540063 0.008480056 -0.024910165 0.027560182
-0.0302102 0.009540063 0.02279015 0.005830039 -0.0026500176 0.003180021 -0.0037100245 -0.014840098
-0.004240028 -0.031270206 -0.012720084 -0.002120014 -0.021200141 -0.007950053 -0.045050297 0.011660078
0.0106000705 0.040280268 0.00901006 -0.007950053 -0.0053000352 -0.00901006 0.038160253 0.001060007
-0.0047700317 0.0068900455 -0.0143100945 0.0026500176 -0.0302102 -0.021730144 0.014840098 -0.013250087
0.017490115 0.0068900455 -0.011660078 0.023320155 -0.023850158 0.018550122 -0.03445023 0.028620189
-0.01961013 -0.0047700317 -0.002120014 -0.011660078 0.006360042 0.023850158 0.0053000352 -0.0005300035
-0.019080127 -0.022260148 -0.035510235 0.031270206 -0.01643011 -0.015900105 0.030740203 -0.0143100945
-0.020140134 -0.002120014 0.033920225 -0.028620189 -0.0068900455 -0.008480056 0.004240028 0.001060007
0.028090186 -0.049290325 0.011660078 0.017490115 0.009540063 0.004240028 -0.0047700317 -0.01802012
0.0047700317 -0.0106000705 0.03180021 0.03498023 -0.04664031 -0.013780091 0.025970172 0.028090186
-0.003180021 -0.025440168 0.021200141 -0.026500175 0.044520296 0.0302102 -0.0005300035 -0.028620189
0.0053000352 0.004240028 -0.030740203 -0.030740203 0.016960112 0.025970172 0.005830039 0.021200141
0.042400282 -0.013780091 0.012190081 0.02703018 -0.0037100245 -0.0047700317 -0.017490115 0.010070067
-0.010070067 0.036570244 -0.011660078 0.010070067 0.009540063 -0.018550122 0.028090186 0.018550122
0.022260148 -0.008480056 -0.0005300035 -0.0037100245 -0.028620189 0.035510235 0.0106000705 -0.01643011
0.040810272 -0.001060007 0.032330215 -0.021200141 0.0053000352 0.013780091 0.015900105 0.03763025
0.035510235 0.014840098 -0.027560182 -0.023320155 0.00901006 0.0053000352 0.01802012 0.004240028
0.0047700317 0.03445023 0.01961013 0.007420049 0.035510235 -0.0053000352 0.0068900455 -0.019080127
0.028620189 -0.019080127 -0.015900105 0.042930283 0.03286022 -0.0143100945 0.015370102 -0.00901006
-0.01961013 -0.005830039 -0.004240028 0.024910165 0.002120014 -0.015370102 0.025970172 0.01802012
0.009540063 -0.007950053 -0.0026500176 0.006360042 -0.019080127 -0.029150194 0.01961013 0.015900105
0.018550122 -0.026500175 -0.01802012 -0.015370102 0.017490115 0.015900105 0.036570244 0.024380162
-0.033920225 0.007950053 -0.007950053 -0.011130074 -0.018550122 -0.021730144 -0.013780091 -0.031270206
0.0 0.001060007 0.012190081 -0.025440168 -0.0143100945 0.0026500176 0.0106000705 -0.010070067
-0.013250087 0.03180021 0.057240378 -0.0037100245 -0.023320155 0.01961013 0.0068900455 -0.014840098
-0.031270206 -0.008480056 0.021730144 -0.028090186 0.006360042 -0.039750263 0.004240028 -0.022260148
0.032330215 0.001060007 0.053530354 -0.016960112 0.001060007 0.025970172 0.009540063 0.0053000352
0.0026500176 0.00901006 -0.020140134 -0.012190081 0.038160253 0.008480056 0.0005300035 -0.028090186

BoxPredictor_1/ClassPredictor/weights_quant/FakeQuantWithMinMaxVars u1 [18, 1, 1, 256] scale=0.00048111405 zero_point=156
00000000: 9897 9897 9898 9898 9997 9897 9797 9798
00000010: 9797 9898 9897 9898 9898 9898 9897 9796
00000020: 9898 9898 9795 9897 9897 9895 9898 9797
00000030: 9896 9798 9897 9897 9898 9798 9898 9898
00000040: 9998 9897 9898 9798 9898 9898 9898 9797
00000050: 9898 9897 9798 9798 9798 9798 9898 9898
00000060: 9897 9897 9798 9697 9799 9898 9798 9797
00000070: 9898 9897 9898 9898 9898 9798 9797 9797
00000080: 9798 9898 9798 9897 9896 9899 9798 9898
00000090: 9897 9798 9797 9599 9798 9796 9898 9798
000000a0: 9897 9797 9797 9898 9897 9895 9798 9798
000000b0: 9897 9798 9798 9897 9898 9898 9798 9797
000000c0: 9898 9798 9897 9797 9898 9897 9897 9898
000000d0: 9798 9897 9898 9898 9898 9797 9898 9898
000000e0: 9697 9898 9896 9698 9898 9898 9998 9898
000000f0: 9795 9898 9898 9898 9897 9898 9898 9898
-0.0019244562 -0.0024055704 -0.0019244562 -0.0024055704 -0.0019244562 -0.0019244562 -0.0019244562 -0.0019244562
-0.0014433422 -0.0024055704 -0.0019244562 -0.0024055704 -0.0024055704 -0.0024055704 -0.0024055704 -0.0019244562
-0.0024055704 -0.0024055704 -0.0019244562 -0.0019244562 -0.0019244562 -0.0024055704 -0.0019244562 -0.0019244562
-0.0019244562 -0.0019244562 -0.0019244562 -0.0019244562 -0.0019244562 -0.0024055704 -0.0024055704 -0.0028866844
-0.0019244562 -0.0019244562 -0.0019244562 -0.0019244562 -0.0024055704 -0.0033677984 -0.0019244562 -0.0024055704
-0.0019244562 -0.0024055704 -0.0019244562 -0.0033677984 -0.0019244562 -0.0019244562 -0.0024055704 -0.0024055704
-0.0019244562 -0.0028866844 -0.0024055704 -0.0019244562 -0.0019244562 -0.0024055704 -0.0019244562 -0.0024055704
-0.0019244562 -0.0019244562 -0.0024055704 -0.0019244562 -0.0019244562 -0.0019244562 -0.0019244562 -0.0019244562
-0.0014433422 -0.0019244562 -0.0019244562 -0.0024055704 -0.0019244562 -0.0019244562 -0.0024055704 -0.0019244562
-0.0019244562 -0.0019244562 -0.0019244562 -0.0019244562 -0.0019244562 -0.0019244562 -0.0024055704 -0.0024055704
-0.0019244562 -0.0019244562 -0.0019244562 -0.0024055704 -0.0024055704 -0.0019244562 -0.0024055704 -0.0019244562
-0.0024055704 -0.0019244562 -0.0024055704 -0.0019244562 -0.0019244562 -0.0019244562 -0.0019244562 -0.0019244562
-0.0019244562 -0.0024055704 -0.0019244562 -0.0024055704 -0.0024055704 -0.0019244562 -0.0028866844 -0.0024055704
-0.0024055704 -0.0014433422 -0.0019244562 -0.0019244562 -0.0024055704 -0.0019244562 -0.0024055704 -0.0024055704
-0.0019244562 -0.0019244562 -0.0019244562 -0.0024055704 -0.0019244562 -0.0019244562 -0.0019244562 -0.0019244562
-0.0019244562 -0.0019244562 -0.0024055704 -0.0019244562 -0.0024055704 -0.0024055704 -0.0024055704 -0.0024055704
-0.0024055704 -0.0019244562 -0.0019244562 -0.0019244562 -0.0024055704 -0.0019244562 -0.0019244562 -0.0024055704
-0.0019244562 -0.0028866844 -0.0019244562 -0.0014433422 -0.0024055704 -0.0019244562 -0.0019244562 -0.0019244562
-0.0019244562 -0.0024055704 -0.0024055704 -0.0019244562 -0.0024055704 -0.0024055704 -0.0033677984 -0.0014433422
-0.0024055704 -0.0019244562 -0.0024055704 -0.0028866844 -0.0019244562 -0.0019244562 -0.0024055704 -0.0019244562
-0.0019244562 -0.0024055704 -0.0024055704 -0.0024055704 -0.0024055704 -0.0024055704 -0.0019244562 -0.0019244562
-0.0019244562 -0.0024055704 -0.0019244562 -0.0033677984 -0.0024055704 -0.0019244562 -0.0024055704 -0.0019244562
-0.0019244562 -0.0024055704 -0.0024055704 -0.0019244562 -0.0024055704 -0.0019244562 -0.0019244562 -0.0024055704
-0.0019244562 -0.0019244562 -0.0019244562 -0.0019244562 -0.0024055704 -0.0019244562 -0.0024055704 -0.0024055704
-0.0019244562 -0.0019244562 -0.0024055704 -0.0019244562 -0.0019244562 -0.0024055704 -0.0024055704 -0.0024055704
-0.0019244562 -0.0019244562 -0.0019244562 -0.0024055704 -0.0019244562 -0.0024055704 -0.0019244562 -0.0019244562
-0.0024055704 -0.0019244562 -0.0019244562 -0.0024055704 -0.0019244562 -0.0019244562 -0.0019244562 -0.0019244562
-0.0019244562 -0.0019244562 -0.0024055704 -0.0024055704 -0.0019244562 -0.0019244562 -0.0019244562 -0.0019244562
-0.0028866844 -0.0024055704 -0.0019244562 -0.0019244562 -0.0019244562 -0.0028866844 -0.0028866844 -0.0019244562
-0.0019244562 -0.0019244562 -0.0019244562 -0.0019244562 -0.0014433422 -0.0019244562 -0.0019244562 -0.0019244562
-0.0024055704 -0.0033677984 -0.0019244562 -0.0019244562 -0.0019244562 -0.0019244562 -0.0019244562 -0.0019244562
-0.0019244562 -0.0024055704 -0.0019244562 -0.0019244562 -0.0019244562 -0.0019244562 -0.0019244562 -0.0019244562

BoxPredictor_2/BoxEncodingPredictor/weights_quant/FakeQuantWithMinMaxVars u1 [24, 1, 1, 128] scale=0.0006746753 zero_point=129
00000000: 293d a381 3dc9 7da7 629a 9d5b 73b5 8ba9
00000010: 8975 739d 786f 186c 4c75 733b 3087 4ca0
00000020: 7e34 2061 534c b8ac ca69 b45b 5e72 9aa2
00000030: b25c 8866 708a a4a0 a48b b890 6a72 b591
00000040: c696 8ab4 6fef 3a62 8573 a42f 6fcd 857a
00000050: b488 8e5a 3e6a 3a89 c7b0 3ec5 7280 7285
00000060: 116e bd61 9dca cbda 4dbb 8ee4 7781 b365
00000070: 3559 996c 573a d896 77cc 807d 5ad8 b550
00000080: aa84 796d ba69 c196 7f9b 9778 4266 6ab0
00000090: 515b 839d 9d75 78a0 7b52 856a 8e93 984e
000000a0: 888a 805c 6d74 5aa0 ab74 8a7b a368 3a9b
000000b0: 7288 85b7 6c92 cb60 8553 9e86 4a96 8d8b
000000c0: b490 9c5c 6d78 55c7 877d 8d66 6e97 b976
000000d0: 5d3c 8277 a667 5f98 537b 8fa8 5070 5b3c
000000e0: 7cb3 7f81 aa4c a275 a1a4 ab68 a7b8 8d64
000000f0: 7838 9d60 6fce 819f 4e7f 8ea4 a075 6ca0
-0.059371423 -0.04587792 0.02293896 0.0 -0.04587792 0.04857662 -0.002698701 0.02563766
-0.020914933 0.016866881 0.018890908 -0.02563766 -0.009445454 0.035083115 0.0067467527 0.02698701
0.005397402 -0.008096104 -0.009445454 0.018890908 -0.0060720774 -0.012144155 -0.0708409 -0.0141681805
-0.03575779 -0.008096104 -0.009445454 -0.04722727 -0.054648697 0.004048052 -0.03575779 0.020914933
-0.002024026 -0.051949997 -0.0654435 -0.021589609 -0.031035062 -0.03575779 0.03710714 0.029011037
0.049251296 -0.016192207 0.03440844 -0.02563766 -0.023613635 -0.010120129 0.016866881 0.022264285
0.03305909 -0.024962986 0.004722727 -0.018216232 -0.01146948 0.0060720774 0.023613635 0.020914933
0.023613635 0.0067467527 0.03710714 0.010120129 -0.015517531 -0.010120129 0.035083115 0.010794804
0.046552595 0.0141681805 0.0060720774 0.03440844 -0.012144155 0.07421428 -0.047901943 -0.020914933
0.002698701 -0.009445454 0.023613635 -0.055323374 -0.012144155 0.05127532 0.002698701 -0.004722727
0.03440844 0.004722727 0.008770779 -0.026312336 -0.045203242 -0.015517531 -0.047901943 0.005397402
0.04722727 0.031709738 -0.045203242 0.04587792 -0.010120129 -0.0006746753 -0.010120129 0.002698701
-0.07556363 -0.01281883 0.040480517 -0.021589609 0.018890908 0.049251296 0.04992597 0.0600461
-0.035083115 0.039131165 0.008770779 0.06679285 -0.0067467527 0.0 0.033733763 -0.018890908
-0.05127532 -0.02698701 0.016192207 -0.0141681805 -0.028336361 -0.047901943 0.05869675 0.0141681805
-0.0067467527 0.050600644 -0.0006746753 -0.002698701 -0.026312336 0.05869675 0.035083115 -0.03305909
0.027661687 0.002024026 -0.005397402 -0.013493505 0.038456492 -0.016192207 0.043179218 0.0141681805
-0.0013493506 0.017541558 0.014842856 -0.0060720774 -0.04250454 -0.018216232 -0.015517531 0.031709738
-0.032384414 -0.02563766 0.0013493506 0.018890908 0.018890908 -0.008096104 -0.0060720774 0.020914933
-0.004048052 -0.031709738 0.002698701 -0.015517531 0.008770779 0.012144155 0.015517531 -0.03440844
0.004722727 0.0060720774 -0.0006746753 -0.024962986 -0.013493505 -0.008770779 -0.026312336 0.020914933
0.028336361 -0.008770779 0.0060720774 -0.004048052 0.02293896 -0.016866881 -0.047901943 0.017541558
-0.010120129 0.004722727 0.002698701 0.036432464 -0.0141681805 0.01146948 0.04992597 -0.022264285
0.002698701 -0.031035062 0.019565582 0.0033733763 -0.03710714 0.0141681805 0.008096104 0.0067467527
0.03440844 0.010120129 0.018216232 -0.024962986 -0.013493505 -0.0060720774 -0.029685711 0.04722727
0.004048052 -0.002698701 0.008096104 -0.018216232 -0.01281883 0.014842856 0.037781816 -0.007421428
-0.02428831 -0.046552595 0.0006746753 -0.0067467527 0.024962986 -0.017541558 -0.02293896 0.015517531
-0.031035062 -0.004048052 0.009445454 0.026312336 -0.03305909 -0.01146948 -0.02563766 -0.046552595
-0.0033733763 0.033733763 -0.0013493506 0.0 0.027661687 -0.03575779 0.022264285 -0.008096104
0.021589609 0.023613635 0.028336361 -0.016866881 0.02563766 0.03710714 0.008096104 -0.019565582
-0.0060720774 -0.049251296 0.018890908 -0.022264285 -0.012144155 0.051949997 0.0 0.020240258
-0.03440844 -0.0013493506 0.008770779 0.023613635 0.020914933 -0.008096104 -0.0141681805 0.020914933

BoxPredictor_2/ClassPredictor/weights_quant/FakeQuantWithMinMaxVars u1 [18, 1, 1, 128] scale=0.0006616871 zero_point=142
00000000: 8c8c 8c8c 8c8c 8c8c 8c8c 8c8c 8c8c 8c8c
00000010: 8c8c 8c8c 8c8c 8c8c 8c8c 8c8c 8c8c 8c8c
00000020: 8c8c 8c8c 8c8c 8c8c 8c8c 8c8c 8c8c 8c8c
00000030: 8c8c 8c8c 8c8c 8c8c 8c8c 8c8c 8c8c 8c8c
00000040: 8c8c 8c8c 8c8c 8c8c 8c8c 8c8c 8c8c 8c8c
00000050: 8c8c 8c8c 8c8c 8c8c 8c8c 8c8c 8c8c 8c8c
00000060: 8c8c 8c8c 8c8c 8c8c 8c8c 8c8c 8c8c 8c8c
00000070: 8c8c 8c8c 8c8c 8c8c 8c8c 8c8c 8c8c 8c8c
00000080: a3cd d3b0 ce6e aebb b4b4 c3d0 c4b3 dac2
00000090: b7a6 98ac cdbd a6b5 88c2 c8d2 8c9b b9b4
000000a0: 99a7 bdb6 dda8 cac4 96ca b8ec bbaa 9aab
000000b0: a4ce 5aac a6c0 b5d8 91d8 aec4 bcc0 b8bc
000000c0: aeba d1cb d88b b49d c2bc 63cd 82a6 cbea
000000d0: bb8d c2b4 baa7 92c6 b8bd b69f 8dbf b2b0
000000e0: 8bc1 b351 b3c0 b793 c680 b6a7 b1b9 bdaf
000000f0: a1a0 aed7 9bb9 cbf4 d2ae c0af af90 d0bf
-0.0013233742 -0.0013233742 -0.0013233742 -0.0013233742 -0.0013233742 -0.0013233742 -0.0013233742 -0.0013233742
-0.0013233742 -0.0013233742 -0.0013233742 -0.0013233742 -0.0013233742 -0.0013233742 -0.0013233742 -0.0013233742
-0.0013233742 -0.0013233742 -0.0013233742 -0.0013233742 -0.0013233742 -0.0013233742 -0.0013233742 -0.0013233742
-0.0013233742 -0.0013233742 -0.0013233742 -0.0013233742 -0.0013233742 -0.0013233742 -0.0013233742 -0.0013233742
-0.0013233742 -0.0013233742 -0.0013233742 -0.0013233742 -0.0013233742 -0.0013233742 -0.0013233742 -0.0013233742
-0.0013233742 -0.0013233742 -0.0013233742 -0.0013233742 -0.0013233742 -0.0013233742 -0.0013233742 -0.0013233742
-0.0013233742 -0.0013233742 -0.0013233742 -0.0013233742 -0.0013233742 -0.0013233742 -0.0013233742 -0.0013233742
-0.0013233742 -0.0013233742 -0.0013233742 -0.0013233742 -0.0013233742 -0.0013233742 -0.0013233742 -0.0013233742
-0.0013233742 -0.0013233742 -0.0013233742 -0.0013233742 -0.0013233742 -0.0013233742 -0.0013233742 -0.0013233742
-0.0013233742 -0.0013233742 -0.0013233742 -0.0013233742 -0.0013233742 -0.0013233742 -0.0013233742 -0.0013233742
-0.0013233742 -0.0013233742 -0.0013233742 -0.0013233742 -0.0013233742 -0.0013233742 -0.0013233742 -0.0013233742
-0.0013233742 -0.0013233742 -0.0013233742 -0.0013233742 -0.0013233742 -0.0013233742 -0.0013233742 -0.0013233742
-0.0013233742 -0.0013233742 -0.0013233742 -0.0013233742 -0.0013233742 -0.0013233742 -0.0013233742 -0.0013233742
-0.0013233742 -0.0013233742 -0.0013233742 -0.0013233742 -0.0013233742 -0.0013233742 -0.0013233742 -0.0013233742
-0.0013233742 -0.0013233742 -0.0013233742 -0.0013233742 -0.0013233742 -0.0013233742 -0.0013233742 -0.0013233742
-0.0013233742 -0.0013233742 -0.0013233742 -0.0013233742 -0.0013233742 -0.0013233742 -0.0013233742 -0.0013233742
0.01389543 0.04168629 0.04565641 0.022497362 0.042347975 -0.021173988 0.021173988 0.02977592
0.02514411 0.02514411 0.035069417 0.04367135 0.035731103 0.024482423 0.05028822 0.03440773
0.027129171 0.015880492 0.006616871 0.019850614 0.04168629 0.031099293 0.015880492 0.025805797
-0.003970123 0.03440773 0.03837785 0.044994723 -0.0013233742 0.008601933 0.028452545 0.02514411
0.0072785583 0.016542178 0.031099293 0.026467483 0.05227328 0.017203866 0.039701227 0.035731103
0.005293497 0.039701227 0.02779086 0.062198587 0.02977592 0.01852724 0.007940246 0.019188926
0.014557117 0.042347975 -0.03440773 0.019850614 0.015880492 0.033084355 0.025805797 0.048964847
0.0019850614 0.048964847 0.021173988 0.035731103 0.030437607 0.033084355 0.02779086 0.030437607
0.021173988 0.029114233 0.044333037 0.040362913 0.048964847 -0.0019850614 0.02514411 0.009925307
0.03440773 0.030437607 -0.028452545 0.04168629 -0.007940246 0.015880492 0.040362913 0.060875215
0.02977592 -0.0006616871 0.03440773 0.02514411 0.029114233 0.016542178 0.0026467484 0.03705448
0.02779086 0.031099293 0.026467483 0.011248681 -0.0006616871 0.03242267 0.023820736 0.022497362
-0.0019850614 0.03374604 0.024482423 -0.040362913 0.024482423 0.033084355 0.027129171 0.0033084354
0.03705448 -0.00926362 0.026467483 0.016542178 0.02315905 0.028452545 0.031099293 0.021835675
0.012572055 0.011910368 0.021173988 0.04830316 0.008601933 0.028452545 0.040362913 0.06749208
0.044994723 0.021173988 0.033084355 0.021835675 0.021835675 0.0013233742 0.04367135 0.03242267

BoxPredictor_3/BoxEncodingPredictor/weights_quant/FakeQuantWithMinMaxVars u1 [24, 1, 1, 64] scale=0.00087324803 zero_point=129
00000000: 85a8 8a19 6d44 6760 6070 819a 5774 c97d
00000010: 599a 957d 7d91 897f 9855 a76d 9b71 6b24
00000020: 8286 67b7 b8a5 6b6d 29fc 9749 8e43 bf75
00000030: e5d1 7780 9396 664d 6b31 7b6f 48a2 adaa
00000040: 9f99 c258 3676 6396 77de 9499 87ba 6b4d
00000050: 6392 b362 7799 3e5f 7dc4 857c 8f5b 5a8b
00000060: 7ca8 2774 79bb ab40 8880 b45a 7a9c 9988
00000070: 7070 687b 445e 9baf 8f98 59af 919b 4e83
00000080: 859f 6b7c ae4a 949d a892 6331 a684 3d8f
00000090: 87a0 9da7 935f 9ca5 8e9b 9693 68a9 90a8
000000a0: a2b9 79e8 9eb2 9290 7e51 817b 8699 9892
000000b0: 5147 8ebc 826c 7995 7f73 7195 64bb 82ca
000000c0: 854b 6e80 7160 6764 7693 b563 a98d 6ac0
000000d0: 846a 413e 48a2 a873 9a82 622d 253a 8e8a
000000e0: 8c90 8b93 9d8e 3868 956b 7c64 a477 ae2f
000000f0: 5a74 4fc3 4c57 5593 a14f 7485 8738 995f
0.0034929921 0.034056675 0.007859232 -0.090817794 -0.01746496 -0.05326813 -0.022704449 -0.028817184
-0.028817184 -0.014845217 0.0 0.021831201 -0.036676418 -0.011352224 0.062873855 -0.0034929921
-0.03492992 0.021831201 0.01746496 -0.0034929921 -0.0034929921 0.013971969 0.0069859843 -0.0017464961
0.020084705 -0.038422912 0.033183426 -0.01746496 0.022704449 -0.013971969 -0.019211456 -0.081212066
0.00087324803 0.00436624 -0.022704449 0.047155395 0.04802864 0.031436928 -0.019211456 -0.01746496
-0.076845825 0.10740951 0.019211456 -0.04890189 0.011352224 -0.05414138 0.05414138 -0.010478976
0.087324806 0.06985984 -0.00873248 -0.00087324803 0.015718464 0.018338209 -0.023577698 -0.045408897
-0.019211456 -0.06985984 -0.005239488 -0.015718464 -0.04977514 0.028817184 0.038422912 0.03580317
0.02619744 0.020957952 0.056761123 -0.03580317 -0.065493606 -0.009605728 -0.02619744 0.018338209
-0.00873248 0.081212066 0.016591713 0.020957952 0.005239488 0.04977514 -0.019211456 -0.045408897
-0.02619744 0.014845217 0.043662403 -0.02707069 -0.00873248 0.020957952 -0.058507618 -0.029690433
-0.0034929921 0.058507618 0.0034929921 -0.00436624 0.012225472 -0.033183426 -0.034056675 0.00873248
-0.00436624 0.034056675 -0.07859232 -0.011352224 -0.0069859843 0.050648388 0.036676418 -0.056761123
0.006112736 -0.00087324803 0.044535648 -0.034056675 -0.006112736 0.023577698 0.020957952 0.006112736
-0.014845217 -0.014845217 -0.021831201 -0.005239488 -0.05326813 -0.03056368 0.022704449 0.04016941
0.012225472 0.020084705 -0.03492992 0.04016941 0.013971969 0.022704449 -0.044535648 0.0017464961
0.0034929921 0.02619744 -0.019211456 -0.00436624 0.03929616 -0.04802864 0.016591713 0.024450945
0.034056675 0.014845217 -0.02619744 -0.06985984 0.032310177 0.002619744 -0.059380867 0.012225472
0.005239488 0.02707069 0.024450945 0.033183426 0.015718464 -0.029690433 0.023577698 0.031436928
0.011352224 0.022704449 0.018338209 0.015718464 -0.021831201 0.03492992 0.01309872 0.034056675
0.028817184 0.04890189 -0.0069859843 0.08994455 0.025324194 0.042789154 0.014845217 0.01309872
-0.002619744 -0.041915905 0.0 -0.005239488 0.00436624 0.020957952 0.020084705 0.014845217
-0.041915905 -0.050648388 0.011352224 0.051521633 0.00087324803 -0.018338209 -0.0069859843 0.01746496
-0.0017464961 -0.012225472 -0.013971969 0.01746496 -0.025324194 0.050648388 0.00087324803 0.06374711
0.0034929921 -0.047155395 -0.016591713 -0.00087324803 -0.013971969 -0.028817184 -0.022704449 -0.025324194
-0.009605728 0.015718464 0.045408897 -0.02619744 0.03492992 0.010478976 -0.020084705 0.055014625
0.002619744 -0.020084705 -0.055887874 -0.058507618 -0.04977514 0.028817184 0.034056675 -0.012225472
0.021831201 0.00087324803 -0.02707069 -0.073352836 -0.08033882 -0.06200061 0.011352224 0.007859232
0.009605728 0.01309872 0.00873248 0.015718464 0.024450945 0.011352224 -0.06374711 -0.021831201
0.01746496 -0.019211456 -0.00436624 -0.025324194 0.03056368 -0.00873248 0.03929616 -0.07160634
-0.034056675 -0.011352224 -0.043662403 0.05763437 -0.046282146 -0.036676418 -0.038422912 0.015718464
0.027943937 -0.043662403 -0.011352224 0.0034929921 0.005239488 -0.06374711 0.020957952 -0.029690433

BoxPredictor_3/ClassPredictor/weights_quant/FakeQuantWithMinMaxVars u1 [18, 1, 1, 64] scale=0.0007426436 zero_point=111
00000000: 6e6e 6e6e 6e6e 6e6e 6e6e 6e6e 6e6e 6e6e
00000010: 6e6e 6e6e 6e6e 6e6e 6e6e 6e6e 6e6e 6e6e
00000020: 6e6e 6e6e 6e6e 6e6e 6e6e 6e6e 6e6e 6e6e
00000030: 6e6e 6e6e 6e6e 6e6e 6e6e 6e6e 6e6e 6e6e
00000040: debb cd93 9497 d8ba c989 d5bf dbaf 9ea8
00000050: b1cb 88a8 c4a3 90b8 c59a cab0 b995 b3bd
00000060: b4bf b39d a182 a0a6 9e99 b3b0 d5bb a4d4
00000070: 7876 a7b2 bed9 c6b6 c2a1 c4b5 d696 a185
00000080: 6e6e 6e6e 6e6e 6e6e 6e6e 6e6e 6e6e 6e6e
00000090: 6e6e 6e6e 6e6e 6e6e 6e6e 6e6e 6e6e 6e6e
000000a0: 6e6e 6e6e 6e6e 6e6e 6e6e 6e6e 6e6e 6e6e
000000b0: 6e6e 6e6e 6e6e 6e6e 6e6e 6e6e 6e6e 6e6e
000000c0: 6e6e 6e6e 6e6e 6e6e 6e6e 6e6e 6e6e 6e6e
000000d0: 6e6e 6e6e 6e6e 6e6e 6e6e 6e6e 6e6e 6e6e
000000e0: 6e6e 6e6e 6e6e 6e6e 6e6e 6e6e 6e6e 6e6e
000000f0: 6e6e 6e6e 6e6e 6e6e 6e6e 6e6e 6e6e 6e6e
-0.0007426436 -0.0007426436 -0.0007426436 -0.0007426436 -0.0007426436 -0.0007426436 -0.0007426436 -0.0007426436
-0.0007426436 -0.0007426436 -0.0007426436 -0.0007426436 -0.0007426436 -0.0007426436 -0.0007426436 -0.0007426436
-0.0007426436 -0.0007426436 -0.0007426436 -0.0007426436 -0.0007426436 -0.0007426436 -0.0007426436 -0.0007426436
-0.0007426436 -0.0007426436 -0.0007426436 -0.0007426436 -0.0007426436 -0.0007426436 -0.0007426436 -0.0007426436
-0.0007426436 -0.0007426436 -0.0007426436 -0.0007426436 -0.0007426436 -0.0007426436 -0.0007426436 -0.0007426436
-0.0007426436 -0.0007426436 -0.0007426436 -0.0007426436 -0.0007426436 -0.0007426436 -0.0007426436 -0.0007426436
-0.0007426436 -0.0007426436 -0.0007426436 -0.0007426436 -0.0007426436 -0.0007426436 -0.0007426436 -0.0007426436
-0.0007426436 -0.0007426436 -0.0007426436 -0.0007426436 -0.0007426436 -0.0007426436 -0.0007426436 -0.0007426436
0.08243344 0.056440912 0.0698085 0.02673517 0.027477814 0.029705744 0.077977575 0.05569827
0.06683792 0.019308735 0.07574965 0.05941149 0.08020551 0.04752919 0.03490425 0.042330686
0.04901448 0.06832321 0.01856609 0.042330686 0.06312471 0.03861747 0.02450724 0.054212984
0.06386735 0.031933676 0.067580566 0.048271835 0.054955628 0.028220456 0.050499767 0.0579262
0.051242407 0.05941149 0.050499767 0.034161605 0.03713218 0.014110228 0.036389537 0.040845398
0.03490425 0.031191032 0.050499767 0.048271835 0.07574965 0.056440912 0.03936011 0.07500701
0.0066837925 0.0051985052 0.041588042 0.049757123 0.058668844 0.07872022 0.06461 0.052727696
0.06163942 0.03713218 0.06312471 0.05198505 0.076492295 0.0289631 0.03713218 0.016338158
-0.0007426436 -0.0007426436 -0.0007426436 -0.0007426436 -0.0007426436 -0.0007426436 -0.0007426436 -0.0007426436
-0.0007426436 -0.0007426436 -0.0007426436 -0.0007426436 -0.0007426436 -0.0007426436 -0.0007426436 -0.0007426436
-0.0007426436 -0.0007426436 -0.0007426436 -0.0007426436 -0.0007426436 -0.0007426436 -0.0007426436 -0.0007426436
-0.0007426436 -0.0007426436 -0.0007426436 -0.0007426436 -0.0007426436 -0.0007426436 -0.0007426436 -0.0007426436
-0.0007426436 -0.0007426436 -0.0007426436 -0.0007426436 -0.0007426436 -0.0007426436 -0.0007426436 -0.0007426436
-0.0007426436 -0.0007426436 -0.0007426436 -0.0007426436 -0.0007426436 -0.0007426436 -0.0007426436 -0.0007426436
-0.0007426436 -0.0007426436 -0.0007426436 -0.0007426436 -0.0007426436 -0.0007426436 -0.0007426436 -0.0007426436
-0.0007426436 -0.0007426436 -0.0007426436 -0.0007426436 -0.0007426436 -0.0007426436 -0.0007426436 -0.0007426436
-0.0007426436 -0.0007426436 -0.0007426436 -0.0007426436 -0.0007426436 -0.0007426436 -0.0007426436 -0.0007426436
-0.0007426436 -0.0007426436 -0.0007426436 -0.0007426436 -0.0007426436 -0.0007426436 -0.0007426436 -0.0007426436
-0.0007426436 -0.0007426436 -0.0007426436 -0.0007426436 -0.0007426436 -0.0007426436 -0.0007426436 -0.0007426436
-0.0007426436 -0.0007426436 -0.0007426436 -0.0007426436 -0.0007426436 -0.0007426436 -0.0007426436 -0.0007426436
-0.0007426436 -0.0007426436 -0.0007426436 -0.0007426436 -0.0007426436 -0.0007426436 -0.0007426436 -0.0007426436
-0.0007426436 -0.0007426436 -0.0007426436 -0.0007426436 -0.0007426436 -0.0007426436 -0.0007426436 -0.0007426436
-0.0007426436 -0.0007426436 -0.0007426436 -0.0007426436 -0.0007426436 -0.0007426436 -0.0007426436 -0.0007426436
-0.0007426436 -0.0007426436 -0.0007426436 -0.0007426436 -0.0007426436 -0.0007426436 -0.0007426436 -0.0007426436

BoxPredictor_4/BoxEncodingPredictor/weights_quant/FakeQuantWithMinMaxVars u1 [24, 1, 1, 64] scale=0.00062607223 zero_point=131
00000000: b774 a8b2 c38b 75d0 7a5c ab70 f068 75c0
00000010: ac76 5f40 7ed3 cdd5 e56d 9672 2e73 e781
00000020: 7cf3 d972 b077 6661 6484 6e3f 815e 5fac
00000030: a57d d865 daae 47bf 846e 5be7 67a7 e279
00000040: 95d0 7653 7dac 7893 75bc 4c75 98b0 c15e
00000050: a989 5c7e 1a60 87a3 acb1 a38d 57dc 5856
00000060: 9b6b 8443 5d7f 4747 6d6b c182 6e66 c8c4
00000070: 5ae7 4b86 c088 8c8c e5f7 295f 7079 9a9a
00000080: 6e87 6b85 52a1 6280 6d7f 6f6b b296 7488
00000090: 5a76 8f5d 71a5 7781 7f88 507d 736e 9c72
000000a0: 619e 7c81 7c8d 8b6f 5a85 8a8a 7797 7377
000000b0: a589 7884 aa72 876f 8c8e 86c0 636d 8ba2
000000c0: 5c57 8279 707c 6d4f 724f 6c65 8960 8785
000000d0: 627a 8762 5f71 8774 676c 745b 6d78 8b6e
000000e0: 6e64 616e 635e 6b77 6a6a 8b7b 6c6a 5c6d
000000f0: 5b5d 7e82 907b 8059 9172 7d59 716d 6f5e
0.032555755 -0.009391083 0.023164673 0.029425396 0.040068623 0.005008578 -0.008765011 0.048207562
-0.00563465 -0.024416817 0.02504289 -0.0118953725 0.06824187 -0.01690395 -0.008765011 0.038190406
0.025668962 -0.008138939 -0.0225386 -0.04194684 -0.0031303612 0.05008578 0.046329346 0.051337924
0.061355077 -0.013773589 0.0118953725 -0.010643228 -0.05321614 -0.010017156 0.06260722 -0.0012521445
-0.0043825055 0.07012009 0.053842213 -0.010643228 0.028173251 -0.0075128665 -0.018156094 -0.021286456
-0.019408239 0.00062607223 -0.013147517 -0.04257291 -0.0012521445 -0.023164673 -0.0225386 0.025668962
0.021286456 -0.0037564333 0.05321614 -0.018782167 0.054468285 0.026921107 -0.037564334 0.037564334
0.00062607223 -0.013147517 -0.02504289 0.06260722 -0.017530022 0.0225386 0.059476864 -0.0062607224
0.0112693 0.048207562 -0.008138939 -0.030051466 -0.0037564333 0.025668962 -0.0068867947 0.010017156
-0.008765011 0.035686117 -0.034433972 -0.008765011 0.013147517 0.028173251 0.038816478 -0.023164673
0.023790745 0.0037564333 -0.024416817 -0.0031303612 -0.06573758 -0.021912528 0.002504289 0.020034311
0.025668962 0.028799323 0.020034311 0.0062607224 -0.027547179 0.05572043 -0.026921107 -0.028173251
0.015025733 -0.015025733 0.00062607223 -0.040068623 -0.023790745 -0.002504289 -0.037564334 -0.037564334
-0.013773589 -0.015025733 0.038816478 -0.00062607223 -0.013147517 -0.018156094 0.043198984 0.040694695
-0.025668962 0.06260722 -0.035060044 0.0018782166 0.038190406 0.0031303612 0.00563465 0.00563465
0.061355077 0.07262438 -0.056346502 -0.0225386 -0.0118953725 -0.0062607224 0.014399662 0.014399662
-0.013147517 0.002504289 -0.015025733 0.0012521445 -0.030677538 0.018782167 -0.020660384 -0.0018782166
-0.013773589 -0.002504289 -0.012521445 -0.015025733 0.029425396 0.0118953725 -0.009391083 0.0031303612
-0.025668962 -0.008138939 0.0075128665 -0.023790745 -0.0112693 0.021286456 -0.0075128665 -0.0012521445
-0.002504289 0.0031303612 -0.031929683 -0.0037564333 -0.010017156 -0.013147517 0.015651805 -0.010643228
-0.021286456 0.01690395 -0.0043825055 -0.0012521445 -0.0043825055 0.0062607224 0.005008578 -0.012521445
-0.025668962 0.0012521445 0.0043825055 0.0043825055 -0.0075128665 0.012521445 -0.010017156 -0.0075128665
0.021286456 0.0037564333 -0.0068867947 0.00062607223 0.024416817 -0.010643228 0.002504289 -0.012521445
0.00563465 0.0068867947 0.0018782166 0.038190406 -0.020034311 -0.013773589 0.005008578 0.019408239
-0.024416817 -0.027547179 -0.00062607223 -0.0062607224 -0.0118953725 -0.0043825055 -0.013773589 -0.032555755
-0.010643228 -0.032555755 -0.014399662 -0.018782167 0.0037564333 -0.021912528 0.002504289 0.0012521445
-0.020660384 -0.00563465 0.002504289 -0.020660384 -0.0225386 -0.0112693 0.002504289 -0.009391083
-0.017530022 -0.014399662 -0.009391083 -0.02504289 -0.013773589 -0.0068867947 0.005008578 -0.013147517
-0.013147517 -0.019408239 -0.021286456 -0.013147517 -0.020034311 -0.023164673 -0.015025733 -0.0075128665
-0.015651805 -0.015651805 0.005008578 -0.005008578 -0.014399662 -0.015651805 -0.024416817 -0.013773589
-0.02504289 -0.023790745 -0.0031303612 -0.00062607223 0.008138939 -0.005008578 -0.0018782166 -0.026295034
0.008765011 -0.010643228 -0.0037564333 -0.026295034 -0.0112693 -0.013773589 -0.012521445 -0.023164673

BoxPredictor_4/ClassPredictor/weights_quant/FakeQuantWithMinMaxVars u1 [18, 1, 1, 64] scale=0.00073458464 zero_point=99
00000000: 6263 6363 6363 6363 6363 6363 6363 6363
00000010: 6363 6363 6363 6363 6363 6363 6363 6363
00000020: 6363 6363 6363 6363 6363 6363 6363 6363
00000030: 6363 6363 6363 6363 6363 6363 6363 6363
00000040: a3a5 b8ad b573 c975 d9a6 9a62 805f 91a3
00000050: b7d6 a2b0 8f9e a797 a8b3 dc79 8b93 919b
00000060: bc73 aab2 b8c4 98a7 a2c2 7664 b2a3 89a5
00000070: 7587 8626 9eac 4f98 b597 98af ce9f ae6d
00000080: 6263 6363 6363 6363 6363 6363 6363 6363
00000090: 6363 6363 6363 6363 6363 6363 6363 6363
000000a0: 6363 6363 6363 6363 6363 6363 6363 6363
000000b0: 6363 6363 6363 6363 6363 6363 6363 6363
000000c0: 6263 6363 6363 6363 6363 6363 6363 6363
000000d0: 6363 6363 6363 6363 6363 6363 6363 6363
000000e0: 6363 6363 6363 6363 6363 6363 6363 6363
000000f0: 6363 6363 6363 6363 6363 6363 6363 6363
-0.00073458464 0.0 0.0 0.0 0.0 0.0 0.0 0.0
0.0 0.0 0.0 0.0 0.0 0.0 0.0 0.0
0.0 0.0 0.0 0.0 0.0 0.0 0.0 0.0
0.0 0.0 0.0 0.0 0.0 0.0 0.0 0.0
0.0 0.0 0.0 0.0 0.0 0.0 0.0 0.0
0.0 0.0 0.0 0.0 0.0 0.0 0.0 0.0
0.0 0.0 0.0 0.0 0.0 0.0 0.0 0.0
0.0 0.0 0.0 0.0 0.0 0.0 0.0 0.0
0.047013417 0.048482586 0.062439695 0.054359265 0.06023594 0.011753354 0.074927635 0.013222523
0.086680986 0.049217172 0.040402155 -0.00073458464 0.021302955 -0.0029383386 0.033790894 0.047013417
0.06170511 0.08447723 0.04627883 0.056563016 0.032321725 0.043340493 0.049951755 0.0381984
0.05068634 0.05876677 0.08888474 0.016160863 0.029383386 0.035260063 0.033790894 0.04113674
0.06537803 0.011753354 0.05215551 0.058032185 0.062439695 0.07125471 0.038932987 0.049951755
0.04627883 0.06978554 0.013957108 0.00073458464 0.058032185 0.047013417 0.027914217 0.048482586
0.013222523 0.026445046 0.025710462 -0.04480966 0.043340493 0.05362468 -0.014691693 0.038932987
0.06023594 0.0381984 0.038932987 0.055828433 0.078600556 0.04407508 0.055093847 0.0073458464
-0.00073458464 0.0 0.0 0.0 0.0 0.0 0.0 0.0
0.0 0.0 0.0 0.0 0.0 0.0 0.0 0.0
0.0 0.0 0.0 0.0 0.0 0.0 0.0 0.0
0.0 0.0 0.0 0.0 0.0 0.0 0.0 0.0
0.0 0.0 0.0 0.0 0.0 0.0 0.0 0.0
0.0 0.0 0.0 0.0 0.0 0.0 0.0 0.0
0.0 0.0 0.0 0.0 0.0 0.0 0.0 0.0
0.0 0.0 0.0 0.0 0.0 0.0 0.0 0.0
-0.00073458464 0.0 0.0 0.0 0.0 0.0 0.0 0.0
0.0 0.0 0.0 0.0 0.0 0.0 0.0 0.0
0.0 0.0 0.0 0.0 0.0 0.0 0.0 0.0
0.0 0.0 0.0 0.0 0.0 0.0 0.0 0.0
0.0 0.0 0.0 0.0 0.0 0.0 0.0 0.0
0.0 0.0 0.0 0.0 0.0 0.0 0.0 0.0
0.0 0.0 0.0 0.0 0.0 0.0 0.0 0.0
0.0 0.0 0.0 0.0 0.0 0.0 0.0 0.0

BoxPredictor_5/BoxEncodingPredictor/weights_quant/FakeQuantWithMinMaxVars u1 [24, 1, 1, 32] scale=0.0007267753 zero_point=136
00000000: 708d 767f 9667 8c8e 738e 7d75 616d 8ea2
00000010: 87ac 936b 7f9b 5b87 a48b 7643 7661 a546
00000020: e5b3 8af3 7aa7 83b1 2f59 ff62 b4d3 b641
00000030: 014f 99fd 76ce 494c c391 a8b6 3213 305e
00000040: 6c79 7d71 9b74 9098 828d a274 756a 977e
00000050: 828d 739a 88a3 a28f 9070 7e40 7977 9662
00000060: 785c 4a6d 5c5e 5b52 496a 5661 5a55 815c
00000070: 495e 584a 5e44 4f4f 5e5a 5e48 5a65 5b57
00000080: 6781 7a88 888c 8b75 7f80 8885 7460 7587
00000090: 807b 7d6f 6d8d 727c 6d8e 7c6e 7a7e 8757
000000a0: 9b89 8888 808d 889f 8780 a280 7f83 8b8f
000000b0: 7a84 7e9c 8596 7275 9991 8f92 7583 818d
000000c0: cfbb b8c3 b5c4 b8b9 b1bc bdbf beab bbc4
000000d0: a7bd cbb1 c4da bbae bfa5 a8b9 bba9 b2ae
000000e0: 3b43 5448 4e49 564b 4462 5c45 4d41 4653
000000f0: 3e47 4d4a 3f4f 3e5a 4a33 4f39 5255 5054
-0.017442608 0.0036338766 -0.013081956 -0.006540978 0.010174855 -0.023983587 0.0029071013 0.004360652
-0.0152622815 0.004360652 -0.007994529 -0.013808731 -0.028344238 -0.019622933 0.004360652 0.018896159
-0.0007267753 0.026163911 0.007994529 -0.021076484 -0.006540978 0.013808731 -0.03270489 -0.0007267753
0.02034971 0.002180326 -0.013081956 -0.050147496 -0.013081956 -0.028344238 0.021076484 -0.047967173
0.0675901 0.031251337 0.0014535506 0.07776496 -0.010174855 0.022530034 -0.0036338766 0.029797789
-0.064683005 -0.03415844 0.086486265 -0.027617462 0.031978115 0.05450815 0.033431664 -0.05160105
-0.09811467 -0.041426193 0.01235518 0.08503272 -0.013081956 0.050874274 -0.045786846 -0.04360652
0.042879745 0.006540978 0.02325681 0.033431664 -0.062502675 -0.08503272 -0.06395623 -0.030524563
-0.02034971 -0.01090163 -0.007994529 -0.016715832 0.013808731 -0.014535506 0.0058142026 0.011628405
-0.004360652 0.0036338766 0.018896159 -0.014535506 -0.013808731 -0.02180326 0.01090163 -0.007267753
-0.004360652 0.0036338766 -0.0152622815 0.013081956 0.0 0.019622933 0.018896159 0.0050874273
0.0058142026 -0.017442608 -0.007267753 -0.052327823 -0.01090163 -0.01235518 0.010174855 -0.027617462
-0.011628405 -0.031978115 -0.04506007 -0.019622933 -0.031978115 -0.030524563 -0.03270489 -0.039245866
-0.045786846 -0.02180326 -0.036338765 -0.028344238 -0.033431664 -0.037065543 -0.0050874273 -0.031978115
-0.045786846 -0.030524563 -0.034885217 -0.04506007 -0.030524563 -0.04942072 -0.041426193 -0.041426193
-0.030524563 -0.033431664 -0.030524563 -0.04651362 -0.033431664 -0.025437137 -0.03270489 -0.03561199
-0.023983587 -0.0050874273 -0.010174855 0.0 0.0 0.0029071013 0.002180326 -0.013808731
-0.006540978 -0.0058142026 0.0 -0.002180326 -0.014535506 -0.029071013 -0.013808731 -0.0007267753
-0.0058142026 -0.009448079 -0.007994529 -0.018169383 -0.019622933 0.0036338766 -0.015989058 -0.008721304
-0.019622933 0.004360652 -0.008721304 -0.018896159 -0.010174855 -0.007267753 -0.0007267753 -0.03561199
0.013808731 0.0007267753 0.0 0.0 -0.0058142026 0.0036338766 0.0 0.016715832
-0.0007267753 -0.0058142026 0.018896159 -0.0058142026 -0.006540978 -0.0036338766 0.002180326 0.0050874273
-0.010174855 -0.0029071013 -0.007267753 0.014535506 -0.002180326 0.010174855 -0.015989058 -0.013808731
0.01235518 0.006540978 0.0050874273 0.007267753 -0.013808731 -0.0036338766 -0.0050874273 0.0036338766
0.05160105 0.037065543 0.034885217 0.042879745 0.03270489 0.04360652 0.034885217 0.03561199
0.029797789 0.037792318 0.038519092 0.039972644 0.039245866 0.025437137 0.037065543 0.04360652
0.022530034 0.038519092 0.048693947 0.029797789 0.04360652 0.059595577 0.037065543 0.027617462
0.039972644 0.021076484 0.02325681 0.03561199 0.037065543 0.023983587 0.030524563 0.027617462
-0.0559617 -0.050147496 -0.037792318 -0.04651362 -0.042152967 -0.045786846 -0.036338765 -0.044333294
-0.04942072 -0.027617462 -0.031978115 -0.048693947 -0.042879745 -0.05160105 -0.047967173 -0.038519092
-0.053781375 -0.047240395 -0.042879745 -0.04506007 -0.053054597 -0.041426193 -0.053781375 -0.033431664
-0.04506007 -0.061775904 -0.041426193 -0.05741525 -0.039245866 -0.037065543 -0.04069942 -0.037792318

BoxPredictor_5/ClassPredictor/weights_quant/FakeQuantWithMinMaxVars u1 [18, 1, 1, 32] scale=0.00062682823 zero_point=1
00000000: 0101 0101 0101 0101 0101 0101 0101 0101
00000010: 0101 0101 0101 0101 0101 0101 0101 0101
00000020: ded5 f4cd c1f4 ebe5 d1dd ccf3 ebe3 d8d2
00000030: c3c8 e9d3 d8dc edda c8f6 e1e1 d7de def4
00000040: 0101 0101 0101 0101 0101 0101 0101 0101
00000050: 0101 0101 0101 0101 0101 0101 0101 0101
00000060: 0101 0101 0101 0101 0101 0101 0101 0101
00000070: 0101 0101 0101 0101 0101 0101 0101 0101
00000080: bdd9 d693 a6bd ceb7 8995 88b2 af9d ab92
00000090: 90bc b98b bc9c cfa1 92b7 baa2 a9b8 96c1
000000a0: 0101 0101 0101 0101 0101 0101 0101 0101
000000b0: 0101 0101 0101 0101 0101 0101 0101 0101
000000c0: 0101 0101 0101 0101 0101 0101 0101 0101
000000d0: 0101 0101 0101 0101 0101 0101 0101 0101
000000e0: d2d1 bfcb c9ae d4d0 d0ce a4e0 cba5 ccc4
000000f0: b1d8 d0ae acbe e0c7 ddd7 bba5 afb8 a5b0
0.0 0.0 0.0 0.0 0.0 0.0 0.0 0.0
0.0 0.0 0.0 0.0 0.0 0.0 0.0 0.0
0.0 0.0 0.0 0.0 0.0 0.0 0.0 0.0
0.0 0.0 0.0 0.0 0.0 0.0 0.0 0.0
0.13852903 0.13288759 0.15231927 0.12787296 0.12035102 0.15231927 0.1466778 0.14291684
0.13038027 0.13790222 0.12724613 0.15169244 0.1466778 0.14166318 0.13476807 0.1310071
0.12160467 0.12473882 0.14542414 0.13163392 0.13476807 0.13727538 0.14793146 0.13602173
0.12473882 0.15357292 0.14040953 0.14040953 0.13414124 0.13852903 0.13852903 0.15231927
0.0 0.0 0.0 0.0 0.0 0.0 0.0 0.0
0.0 0.0 0.0 0.0 0.0 0.0 0.0 0.0
0.0 0.0 0.0 0.0 0.0 0.0 0.0 0.0
0.0 0.0 0.0 0.0 0.0 0.0 0.0 0.0
0.0 0.0 0.0 0.0 0.0 0.0 0.0 0.0
0.0 0.0 0.0 0.0 0.0 0.0 0.0 0.0
0.0 0.0 0.0 0.0 0.0 0.0 0.0 0.0
0.0 0.0 0.0 0.0 0.0 0.0 0.0 0.0
0.11784371 0.1353949 0.13351442 0.09151692 0.10342666 0.11784371 0.12849979 0.11408274
0.08524864 0.09277058 0.08462181 0.1109486 0.10906811 0.097785205 0.1065608 0.090890095
0.08963644 0.11721688 0.115336396 0.0865023 0.11721688 0.09715837 0.12912661 0.10029252
0.090890095 0.11408274 0.11596322 0.10091934 0.10530714 0.11470956 0.09339741 0.12035102
0.0 0.0 0.0 0.0 0.0 0.0 0.0 0.0
0.0 0.0 0.0 0.0 0.0 0.0 0.0 0.0
0.0 0.0 0.0 0.0 0.0 0.0 0.0 0.0
0.0 0.0 0.0 0.0 0.0 0.0 0.0 0.0
0.0 0.0 0.0 0.0 0.0 0.0 0.0 0.0
0.0 0.0 0.0 0.0 0.0 0.0 0.0 0.0
0.0 0.0 0.0 0.0 0.0 0.0 0.0 0.0
0.0 0.0 0.0 0.0 0.0 0.0 0.0 0.0
0.1310071 0.13038027 0.11909737 0.12661931 0.12536564 0.108441286 0.13226075 0.12975344
0.12975344 0.12849979 0.102173 0.1397827 0.12661931 0.10279983 0.12724613 0.122231506
0.11032177 0.13476807 0.12975344 0.108441286 0.10718763 0.118470535 0.1397827 0.12411199
0.13790222 0.13414124 0.11659005 0.10279983 0.10906811 0.11470956 0.10279983 0.10969494

FeatureExtractor/MobilenetV1/Conv2d_13_pointwise_1_Conv2d_2_1x1_64/weights_quant/FakeQuantWithMinMaxVars u1 [64, 1, 1, 256] scale=0.0023657337 zero_point=134
00000000: 8383 977c 756b 9f9b 41c2 7eb9 8f60 9ed6
00000010: a0ab 6853 b0ed 83b7 568c 60a0 a07e 99a9
00000020: 246a 8b6a bfa6 b286 7bc7 9c7f 8054 85bb
00000030: 607c 8e77 4796 9294 6a9e a79b d85d 90b1
00000040: 519d 66ae a098 8aa8 625d 50a9 b462 7958
00000050: 8259 7485 9eb8 817a 8273 ae62 5a43 6caa
00000060: b67c 998a 7dae be8c 7d75 d168 7791 7386
00000070: 8788 7170 82a0 b66c 6a96 5a94 8796 759a
00000080: a99a 517c 8b71 9655 6bc3 9986 7f6d a321
00000090: 5bb6 878c bf91 6757 817c a57c 79a4 697a
000000a0: af7e a38e acb9 6a8f 7890 a778 ab7d 9139
000000b0: 9997 779e a354 9ef0 ae64 4cad 5d61 7850
000000c0: b68e 7d68 8d85 bbaf 8e71 96a7 72a9 8ba7
000000d0: 9f62 9294 b268 6687 6b51 986b cf82 9d54
000000e0: b142 a07f 616b 958b 778a 6c7d 7d65 6c5c
000000f0: a798 96a7 9547 9d70 6fab a28a 6f57 45ab
-0.0070972014 -0.0070972014 0.040217474 -0.023657337 -0.040217474 -0.06387481 0.059143342 0.049680408
-0.16323563 0.14194402 -0.01892587 0.12065242 0.021291604 -0.08989788 0.05677761 0.1892587
0.061509077 0.08753215 -0.07097201 -0.12065242 0.099360816 0.24367057 -0.0070972014 0.11592095
-0.11355522 0.014194403 -0.08989788 0.061509077 0.061509077 -0.01892587 0.04494894 0.08280068
-0.2318419 -0.06624054 0.011828668 -0.06624054 0.13484682 0.07570348 0.104092285 0.0
-0.026023071 0.1537727 0.052046143 -0.016560135 -0.014194403 -0.118286684 -0.0023657337 0.12538388
-0.08989788 -0.023657337 0.01892587 -0.035486005 -0.14904122 0.03785174 0.028388806 0.03312027
-0.06624054 0.05677761 0.07806921 0.049680408 0.19399017 -0.096995085 0.023657337 0.10172655
-0.12538388 0.054411877 -0.07570348 0.09462935 0.061509077 0.04258321 0.009462935 0.08043495
-0.08516642 -0.096995085 -0.12774962 0.08280068 0.108823754 -0.08516642 -0.030754538 -0.108823754
-0.009462935 -0.106458016 -0.04258321 -0.0023657337 0.05677761 0.118286684 -0.011828668 -0.028388806
-0.009462935 -0.04494894 0.09462935 -0.08516642 -0.104092285 -0.15850416 -0.061509077 0.08516642
0.11355522 -0.023657337 0.04494894 0.009462935 -0.021291604 0.09462935 0.13248108 0.014194403
-0.021291604 -0.040217474 0.17743003 -0.07097201 -0.035486005 0.026023071 -0.04494894 0.0
0.0023657337 0.0047314675 -0.049680408 -0.052046143 -0.009462935 0.061509077 0.11355522 -0.061509077
-0.06624054 0.03785174 -0.104092285 0.03312027 0.0023657337 0.03785174 -0.040217474 0.047314674
0.08280068 0.047314674 -0.12538388 -0.023657337 0.011828668 -0.049680408 0.03785174 -0.11592095
-0.06387481 0.14430976 0.04494894 0.0 -0.016560135 -0.059143342 0.06860628 -0.2389391
-0.10172655 0.11355522 0.0023657337 0.014194403 0.13484682 0.026023071 -0.07333775 -0.111189485
-0.011828668 -0.023657337 0.07333775 -0.023657337 -0.030754538 0.07097201 -0.06860628 -0.028388806
0.096995085 -0.01892587 0.06860628 0.01892587 0.08989788 0.12065242 -0.06624054 0.021291604
-0.03312027 0.023657337 0.07806921 -0.03312027 0.08753215 -0.021291604 0.026023071 -0.1821615
0.04494894 0.040217474 -0.035486005 0.05677761 0.06860628 -0.118286684 0.05677761 0.25076777
0.09462935 -0.08043495 -0.13721256 0.09226362 -0.096995085 -0.08753215 -0.03312027 -0.12774962
0.11355522 0.01892587 -0.021291604 -0.07097201 0.016560135 -0.0023657337 0.12538388 0.096995085
0.01892587 -0.049680408 0.03785174 0.07806921 -0.047314674 0.08280068 0.011828668 0.07806921
0.059143342 -0.08516642 0.028388806 0.03312027 0.104092285 -0.07097201 -0.07570348 0.0023657337
-0.06387481 -0.12538388 0.04258321 -0.06387481 0.17269856 -0.009462935 0.054411877 -0.118286684
0.10172655 -0.1608699 0.061509077 -0.016560135 -0.08753215 -0.06387481 0.035486005 0.011828668
-0.035486005 0.009462935 -0.061509077 -0.021291604 -0.021291604 -0.07806921 -0.061509077 -0.099360816
0.07806921 0.04258321 0.03785174 0.07806921 0.035486005 -0.14904122 0.054411877 -0.052046143
-0.054411877 0.08753215 0.06624054 0.009462935 -0.054411877 -0.111189485 -0.1537727 0.08753215
